…
syntactic reordering,0,2,False,False,False,learnmachinelearning,1497356443,True,"Hi to all,

i just started learning LSTM in order to use this kind of RNN networks for my thesis, syntactic reordering for machin translation. actually i know the bases of LSTM and got familiar with them. but my problem is how to identify weights as well as activation function for each LSTM block. i also want to know when can i use each block for changing the order of words?"
"Clustering binary values (0,0,0,1,0,0) against single values (10.50)",2,3,False,False,False,learnmachinelearning,1497359551,True,"I have a dataset that looks like this:

|   Group  |  X  |     
| --- | --- | 
| [0, 0, 0, 0, 0, 0, 0, 1, 0] |  10  |    
| [0, 0, 0, 0, 0, 1, 0, 0, 0] |  15  |    
| [0, 0, 0, 0, 0, 0, 0, 0, 1] |  7  |    
| [0, 0, 0, 0, 0, 0, 0, 1, 0] |  11  |    
| [0, 0, 0, 0, 0, 1, 0, 0, 0] |  15  |    
| [0, 0, 1, 0, 0, 0, 0, 0, 0] |  20  |    
.....

Representing a graph database with values corresponding to nodes. I was wondering if there was any way to cluster this type of data (i.e. somehow develop a distance metric for the binary values)?

Any help or advice is much appreciated.

EDIT: I will describe the problem I am facing in more detail.

I have a dataset that is encoded with a medical hierarchical terminoly system that represents an acyclic directed graph. In my dataset I have 9 ""diseases"": F0,F1,F2,F3,F4,F5,F6,F7,F8 that are represented by the following graph http://imgur.com/a/oK3ur. The more u go down in the tree, the more specific the disease gets (i.e.: F0 = lung cancer, F8 = Malignant Tumor in Left Lung). 
…
    def get_weights_without_softargmax(fname):
        	model = load_model(fname, custom_objects={'spatial_softArgmax':spatial_softArgmax})
	
	    model.summary()
	    model.layers.pop() # reshape layer
	    model.layers.pop() # spatial softargmax

	    model.summary()
	
	    model.save(""no_softargmax_"" + str(fname))

The first model.summary returns a summary of the whole network;

    _________________________________________________________________
    Layer (type)                 Output Shape              Param #   
    =================================================================
    input_1 (InputLayer)         (None, 1, 100, 100)       0         
    _________________________________________________________________
    conv2d_1 (Conv2D)            (None, 34, 100, 100)      2788      
    _________________________________________________________________
    conv2d_2 (Conv2D)            (None, 34, 100, 100)      93670     
    _________________________________________________________________
    conv2d_3 (Conv2D)            (None, 34, 100, 100)      93670     
    _________________________________________________________________
    conv2d_4 (Conv2D)            (None, 34, 100, 100)      93670     
    _________________________________________________________________
    spatial_soft_argmax_1 (spati (None, 68)                0         
    _________________________________________________________________
    reshape_1 (Reshape)          (None, 34, 2)             0         
    =================================================================
    Total params: 283,798
    Trainable params: 283,798
    Non-trainable params: 0


and the second one returns the now popped network


    _________________________________________________________________
    Layer (type)                 Output Shape              Param #   
    =================================================================
    input_1 (InputLayer)         (None, 1, 100, 100)       0         
    _________________________________________________________________
    conv2d_1 (Conv2D)            (None, 34, 100, 100)      2788      
    _________________________________________________________________
    conv2d_2 (Conv2D)            (None, 34, 100, 100)      93670     
    _________________________________________________________________
    conv2d_3 (Conv2D)            (None, 34, 100, 100)      93670     
    _________________________________________________________________
    conv2d_4 (Conv2D)            (None, 34, 100, 100)      93670     
    =================================================================
    Total params: 283,798
    Trainable params: 283,798
    Non-trainable params: 0


but when I try to do `model.save()` - i get this error:


    Traceback (most recent call last):
      File ""weight_chopper.py"", line 18, in &lt;module&gt;
        get_weights_without_softargmax(""34pts_94percent.h5"")
      File ""weight_chopper.py"", line 16, in get_weights_without_softargmax
…
